DataTrain.pth (torch, 9639 bytes, 6 tensors)

L1.weight f4 [8, 132]
000000 32 40 e1 3e e3 3d ec 3e 13 ba c0 be 15 a6 63 3d
       0.4399429 0.46140966 -0.37641963 0.05557831
000010 9d be 02 3e 37 e9 24 3f ff a4 67 be 80 6e 3a bf
       0.12768026 0.6441836 -0.22621535 -0.7282486
000020 bb 55 ca 3f 91 c1 d1 be 46 8e 62 bf cc 33 42 bf
       1.5807413 -0.40967992 -0.8849834 -0.75860286
000030 03 ba 9d 3e 20 e2 45 3f 1b 23 b8 3e e9 8e e4 3e
       0.30805978 0.77298164 0.35964283 0.44640282
000040 bb 35 e4 bf 56 18 bc 3e c3 b6 08 3e d7 f9 89 3f
       -1.7828897 0.36737317 0.13350968 1.077937
000050 93 34 0d 40 27 09 9e 3f ec 9a 17 3e 03 53 64 3f
       2.2063339 1.2346543 0.14805192 0.89189166
000060 3f 7c 0b 40 2b 2b 34 3f 82 bc ad 3e b9 f2 9a be
       2.1794584 0.7037837 0.33932883 -0.30263308
000070 5c 79 4c 3e 0b 29 75 bf 6a 41 a5 bf 11 fc 7d 3d
       0.1996817 -0.9576575 -1.2910588 0.062007967
000080 91 6b b3 be f4 c4 91 3f 3a 11 90 3f 2c b0 e2 3f
       -0.35043004 1.138823 1.1255257 1.7710013
000090 67 57 dc 3f e2 5a ae 3f fa 16 95 bc f9 e9 0b 40
       1.7214173 1.3621485 -0.018199433 2.1861556
0000a0 2a bb 55 bf ec 5b 4a 3f 69 45 93 3e 52 1d f4 bd
       -0.83488715 0.7904651 0.28763893 -0.11919655
0000b0 b8 03 9d 3e bc 2a 2d 3f 7a fc 68 bf 11 21 74 3e
       0.306669 0.6764333 -0.9101025 0.23840739
0000c0 49 16 de 3e 2d 6e 46 3f e9 38 86 bb 1e d4 05 3f
       0.43376377 0.77511865 -0.0040961397 0.5227679
0000d0 3a eb 49 3f 97 7b d4 3e 41 f7 92 bd 4d 13 c0 3f
       0.7887455 0.41500542 -0.07176066 1.500589
0000e0 29 8f f9 3d 81 c5 9d 3f 24 29 91 3f c4 77 06 3e
       0.12185509 1.2325898 1.134068 0.13131624
0000f0 15 d2 b0 3f bd 17 18 40 7f d0 16 40 b7 e7 21 3e
       1.3814112 2.3764489 2.3564756 0.15811048
000100 62 50 b8 be 1c 4a 30 3e b6 e5 5c 3f 13 de 4f bf
       -0.35998827 0.1721577 0.8628801 -0.81198233
000110 0d 87 17 3b 3e d8 9f 3f 88 10 5e bf a4 b2 ca bf
       0.0023121268 1.2487867 -0.86743975 -1.5835767
000120 67 0c 01 bf e4 24 2d bf b1 13 34 bf 9e 32 44 3f
       -0.5040955 -0.67634416 -0.70342547 0.76639736
000130 91 2f e9 be dc 4e 7b bf 3a 34 83 3e 7e 40 b5 3e
       -0.45544103 -0.98167205 0.25625783 0.35400766
000140 e2 46 ed 3c ba e5 1f bf f9 ea 04 bf e6 cb 00 3f
       0.028964464 -0.6245991 -0.5192104 0.50311124
000150 d5 79 61 3e 4b 0a f0 3e 7c 39 19 3f 71 3d f4 3e
       0.22019131 0.46882853 0.5985334 0.47703126
000160 a4 11 4f bf 63 ae 79 3f 96 ab af bd 72 8d 10 3f
       -0.8088629 0.9753172 -0.08577649 0.5646583
000170 bf 5b 24 3f 90 e4 83 bf 76 18 01 3f 3a 41 1b 3f
       0.64202493 -1.0304127 0.5042795 0.606464
000180 96 e3 0b 3f 48 93 01 3e c0 c6 09 40 c4 69 ac 3f
       0.54644144 0.1265384 2.1527557 1.3469777
000190 0d 05 29 be a4 dc 78 3e 42 8a 36 3e 3b d6 70 3e
       -0.16505833 0.24302918 0.17826179 0.23519222
0001a0 8e f5 dc 3f 00 09 51 bf 96 ce 6c 3f c1 07 4f bf
       1.7262437 -0.8165436 0.92502725 -0.80871207
0001b0 7e 60 53 3f 0a bb 82 3e 5f 00 31 40 da e1 34 3f
       0.8256911 0.25533324 2.7656476 0.7065712
0001c0 ca 9e 2c 3f b1 05 9b 3e 92 d1 3f 3f e2 e3 00 3f
       0.6742979 0.3027778 0.74929154 0.5034772
0001d0 37 47 7b be a2 61 aa 3f 9d a9 20 bf 0e eb fd 3f
       -0.24538885 1.3311045 -0.6275881 1.9837358
0001e0 da dc e1 3f 99 76 94 3f 36 0a bb 3f 6b 9e 89 3e
       1.7645524 1.1598693 1.4612491 0.26878676
0001f0 31 0c d2 be 88 6a ca be b7 ab 03 40 eb 76 9a be
       -0.41024926 -0.39534402 2.0573556 -0.30168852
000200 ff bf 78 3e 0c 36 8d 3f ff 99 9c 3f 3d 81 f6 3f
       0.2429199 1.1032119 1.2234496 1.925819
000210 44 99 2b 3f 51 72 0b bd 92 bf 06 be 98 2a 52 3f
       0.6703074 -0.034044567 -0.13159016 0.8209624
000220 9e d5 67 3f 09 82 3f 3f e1 76 08 3f ba f6 20 3f
       0.9056033 0.7480779 0.53306395 0.62876475
000230 bd 47 25 40 e0 b9 d3 be 1b b6 a9 3f 7e 90 c5 3f
       2.5825036 -0.4135275 1.3258699 1.543472
000240 f9 3b 7c 3f 88 d2 82 3f a9 48 84 3e 4b 7a 5f 3f
       0.9852901 1.0220499 0.25836685 0.8729598
000250 06 99 f5 bf 57 45 68 bf 41 c0 15 3f a4 eb b1 3e
       -1.9187324 -0.90730804 0.5849648 0.34750092
000260 6c b6 a5 3f 58 2e a4 be 13 c1 62 3f 14 f4 6c 3f
       1.2946296 -0.32066607 0.8857586 0.92559934
000270 02 3a 09 40 6a bd 5a 3f c3 97 06 3f 1c 93 f9 be
       2.1441655 0.8544527 0.5257532 -0.48745048
000280 eb df 35 3f 8d 1c c8 3f c0 64 9b bf 9d 9f b8 be
       0.71044797 1.5633713 -1.2140121 -0.36059275
000290 85 89 9f 3d 95 21 03 3f 3b 7f 05 3f d1 bf c2 3d
       0.07789902 0.5122312 0.52147263 0.09509242
0002a0 bb c0 cb 3d a2 6e 14 40 6f 8a 8b 3f b8 56 86 3f
       0.0994887 2.3192525 1.0901622 1.0495214
0002b0 1c 01 99 bf 84 35 6f 3e fe ea 36 3f 29 65 91 bf
       -1.1953464 0.23360258 0.7145232 -1.1358997
0002c0 cc 52 8b 3e e3 f6 1a 3f c3 8f 2d 3f d6 f6 9d be
       0.27211607 0.6053297 0.6779749 -0.30852383
0002d0 a9 3b 1c 40 8e 8d 00 40 f9 d0 10 3e d8 07 1e 3f
       2.4411414 2.0086398 0.14142217 0.6173072
0002e0 6a 6e 04 40 f7 65 1e 40 e7 09 76 3e 46 0b 0c 3f
       2.0692391 2.4749734 0.24027215 0.547047
0002f0 3d 3d 0f bf e7 80 76 bf f5 2b 76 bf 37 ab 5c be
       -0.5595282 -0.9629044 -0.96160823 -0.21549688
000300 d8 bd 03 40 dd 2e 9a bd 1f fc c8 bd a5 79 72 3f
       2.0584621 -0.0752847 -0.09813713 0.94716865
000310 e5 75 0e 3f 84 83 6d 3f d3 eb a4 3f f1 d7 f0 3e
       0.5564864 0.927788 1.2884468 0.4703975
000320 93 e8 0c be 1e cc 00 40 18 e1 94 bf a3 1e 5d bf
       -0.13760595 2.0124583 -1.1631193 -0.8637487
000330 3b 7a df 3e 61 29 95 bf 24 82 96 bf 74 18 58 3f
       0.43647942 -1.1653253 -1.1758466 0.8441231
000340 6e dd dd 3f 6a 8f 23 3f 65 18 bb 3e c1 e6 86 3e
       1.73332 0.6389071 0.3654205 0.26347926
000350 6f c1 77 3f 22 ac bb 3e 18 63 06 3e 5e 87 f0 bc
       0.9677953 0.36654764 0.13123739 -0.029361423
000360 18 82 74 3e db b1 3a 3f 20 75 90 3f 9e ea 80 bf
       0.23877752 0.72927636 1.1285744 -1.00716
000370 aa 4a 2b 3f 81 f6 bb 3f 41 e9 5f 3e 20 6e 47 3f
       0.66910803 1.4684602 0.21866323 0.7790241
000380 26 1b 34 3f f0 5b 89 3e fd bc 4a 3f 35 83 97 3f
       0.70353925 0.26827955 0.79194623 1.1836916
000390 e6 20 42 3f 71 ac 45 bd 88 4a e8 3f a3 7b 6b 3f
       0.7583145 -0.048260156 1.8147745 0.9198553
0003a0 c5 73 1b 3e 4b 7f 79 3f 33 29 67 3f cb 57 44 3e
       0.15180881 0.9745986 0.9029724 0.19174115
0003b0 d6 b9 03 40 bf 92 99 bf c7 b7 b1 3f af 3f ea 3f
       2.0582175 -1.1997908 1.3884209 1.8300685
0003c0 3c ec 88 3f 67 96 a3 be 01 4a 57 3f 36 3c 6b 3f
       1.0697093 -0.31950685 0.84097296 0.9188875
0003d0 67 59 c1 bf 72 91 11 3f e8 a2 bc be c3 67 15 be
       -1.5105408 0.56862557 -0.36843038 -0.14590363
0003e0 d8 28 0d 3f 46 d3 b8 3f cd db b2 3e 58 0c ef 3f
       0.5514045 1.4439476 0.3493332 1.8675642
0003f0 83 94 f4 3f d9 26 66 3f 6e 43 29 40 6e 13 a0 3f
       1.9107822 0.89903027 2.6447406 1.250593

L1.bias f4 [8]
000000 87 3b a3 3f f0 d7 86 3f 65 1c 89 3f 40 8c b7 3f
       1.2752541 1.0534649 1.071179 1.4339676
000010 cd 0d bf 3f be 53 9e 3f 8b b9 9d 3f 9f 0d 9a 3f
       1.4926087 1.2369306 1.2322248 1.2035407

L2.weight f4 [8, 8]
000000 75 29 1f bf 1d cf 72 3f 4d 3a 36 40 f5 3b 9d be
       -0.62172633 0.9484728 2.8473084 -0.30709806
000010 eb c7 c4 3f bc 3b 1c bf df df fb 3f 42 34 89 bf
       1.537351 -0.6102865 1.9677695 -1.0719073
000020 ed f7 b9 3d 5c 24 5a bf 4f e0 1f 40 6d ff a0 3f
       0.09080491 -0.8521173 2.4980657 1.257795
000030 7e c7 fb 3e e6 13 80 3c c2 83 8e 3f d3 2d e3 be
       0.49175638 0.015634488 1.1133959 -0.443709
000040 29 ee 39 40 8b de 31 40 05 d0 af bf 52 c5 59 bf
       2.9051611 2.779208 -1.3735358 -0.8506671
000050 f5 74 8a bf 41 a8 82 bf d9 33 2b 40 4e 2f 48 40
       -1.0816942 -1.0207597 2.6750395 3.1278872
000060 90 42 38 be 50 ab 9f be ef 5d 8f 3e 80 f0 31 bb
       -0.17994142 -0.3118539 0.28001353 -0.0027151406
000070 bb 49 ae be 96 52 23 3e bf bd ac be f1 c5 18 be
       -0.34040627 0.15949473 -0.33738515 -0.14919259
000080 e2 03 24 bd 88 0a 6b 3e 97 2d 48 bf d6 18 3f 40
       -0.040042765 0.22953236 -0.78194565 2.9858909
000090 12 88 34 40 43 14 4b 40 7f 3a 78 bf 37 2d 91 3f
       2.820805 3.1731117 -0.9696426 1.1341923
0000a0 b0 fe 1e 3f b0 f6 d2 3f bb ef d4 be 9c 33 28 be
       0.6210737 1.6481533 -0.4158915 -0.16425937
0000b0 73 f3 73 3f d1 aa 7a 3f 94 bf f8 be d9 e0 12 bf
       0.9529335 0.97916895 -0.48583663 -0.5737434
0000c0 8b 10 28 3e 07 6a 4d 3f 03 39 11 c0 af 96 2d 3f
       0.1641256 0.8023991 -2.2691047 0.6780805
0000d0 84 c3 00 3f 08 e9 8b 3f 7e 75 a5 bf 32 1e a3 be
       0.50298333 1.093049 -1.2926481 -0.31858975
0000e0 f1 f9 7a 3f 32 a4 1a bf 7e 7b 57 3f 7f bc d8 3f
       0.9803763 -0.6040679 0.8417281 1.6932524
0000f0 eb e7 92 be c4 c7 24 bf 91 61 51 be 5a ca 61 3f
       -0.28692564 -0.6436732 -0.20447375 0.8819939

L2.bias f4 [8]
000000 85 68 35 3f a7 e8 10 3f 69 f7 43 3f 44 10 b1 be
       0.7086261 0.56605 0.7654939 -0.34582722
000010 45 c4 43 3f 58 e2 9f be ac 15 ad 3c 53 cd 90 3e
       0.7647136 -0.31227374 0.021128498 0.2828165

L3.weight f4 [28, 8]
000000 42 ad 1a 3e 1e 1e 0c bf c0 27 c7 bf 06 6d 86 be
       0.15105155 -0.54733455 -1.5559006 -0.26255053
000010 92 8e 20 bd bf 27 91 3e 46 c5 fb bf 5a 43 90 c0
       -0.039198466 0.28350636 -1.9669578 -4.5082216
000020 81 75 9e bf 8c b1 8f bf 40 75 ba bf 22 32 b0 be
       -1.2379609 -1.1226058 -1.4567032 -0.34413248
000030 9b 7a c7 3e 04 a0 20 be 5e bf 81 bf ce fa 0a 3e
       0.38960728 -0.15686041 -1.0136526 0.13572237
000040 2a c3 55 3d a1 bf aa 3e fe 35 07 be 88 49 3c bd
       0.052188076 0.33349326 -0.1320419 -0.045968562
000050 c2 4a 8b c0 3d 6e 76 c0 5e ff 46 3e d5 f0 61 3f
       -4.3528757 -3.8504784 0.19433352 0.88258106
000060 c1 f3 91 c0 1f b6 8d c0 a9 57 61 3f 7f e4 ae 3e
       -4.561005 -4.4284816 0.88024384 0.34158704
000070 b7 55 ac bf 74 72 8d bd 7f 6a 7a c0 14 08 70 3f
       -1.3463658 -0.06906596 -3.91275 0.93762326
000080 6b f7 c6 3d 2d fc 36 be 5e fa f5 be 5e 0a 9d be
       0.0971516 -0.17869635 -0.48042578 -0.30671972
000090 7a 48 fa bf 3d 35 af 3d 81 73 17 c0 ee ba 21 3f
       -1.9553368 0.08555076 -2.3664248 0.6317586
0000a0 db a2 6b c0 5f 5b d3 be 85 f2 29 c0 06 16 53 3e
       -3.681815 -0.41280648 -2.6554272 0.2061387
0000b0 32 51 35 3f f6 1f b2 bf ee ce 03 3e 6d b8 04 3e
       0.7082702 -1.3916004 0.12871906 0.12960978
0000c0 1b 7f 77 bf d1 e2 7d be 00 0e 1b be 38 9a b1 be
       -0.9667832 -0.24793555 -0.1514206 -0.34687972
0000d0 7b e6 27 be 59 9f 59 bf 04 1b d9 c0 7b 36 18 3e
       -0.16396515 -0.8500877 -6.784548 0.14864533
0000e0 76 32 14 c0 8d d9 73 c0 04 c6 ae 3e 48 c7 13 3d
       -2.31558 -3.8101532 0.3413545 0.03607872
0000f0 7a 43 df be b7 aa f0 3e ef ea d2 bf 88 74 0b bf
       -0.43606168 0.47005245 -1.6477946 -0.5447469
000100 fd a1 9c bf 07 13 ce bf 69 f3 63 3f 74 54 9c bd
       -1.2236935 -1.6099557 0.8904329 -0.07633296
000110 c8 fd 3a c0 40 11 8b bf 99 2d c2 bf 1a 8d 38 3f
       -2.9217396 -1.0864639 -1.5170165 0.72090304
000120 4c bf 57 bf 2c 13 84 3e bc c1 59 c0 80 5b 00 3b
       -0.8427627 0.25795877 -3.4024496 0.0019585788
000130 85 66 cb 3e 41 4c 08 c0 ca 9f 81 c0 a7 4b 73 3f
       0.39726654 -2.1296542 -4.0507555 0.9503731
000140 f8 c8 8c be ef bb e3 3e f3 30 ae bf 5a 5c 54 3e
       -0.27497077 0.4447932 -1.3608688 0.20738354
000150 f3 41 f4 be f0 4b 5e c0 ee ff 81 c0 ca 64 cf 3f
       -0.47706565 -3.4733849 -4.0624914 1.6202633
000160 76 de 7e bf a3 24 6c bd 3a 6a b6 3e 9a f3 35 3e
       -0.995582 -0.057652127 0.3562792 0.17768708
000170 49 89 98 bf bf 8d c0 c0 bf ef 5d bf c2 86 91 3f
       -1.1916896 -6.017303 -0.8669395 1.136925
000180 f0 d3 77 3d ea 80 d1 be 4c f8 5c 3f 84 6b ba 3d
       0.060504854 -0.40918666 0.8631637 0.09102538
000190 ce ab 90 c0 33 4c 51 c0 62 44 30 bd 18 f1 c0 bf
       -4.5209723 -3.2702758 -0.043033965 -1.5073576
0001a0 53 c4 7a c0 4e 5a 91 c0 c2 2c 3d be 04 17 22 be
       -3.9182327 -4.5422735 -0.18474105 -0.15829092
0001b0 67 c4 3f be 50 61 0e 3f a1 e0 4f 3f 1a 9c 75 bf
       -0.18727265 0.5561724 0.8120213 -0.9594132
0001c0 1a 86 05 c0 9c 2b 83 bf 6d 7b 7b c0 3d 42 88 3e
       -2.08631 -1.0247684 -3.9294083 0.26613036
0001d0 cf b4 c3 3e 3d 56 1e 3f 0f d5 5f 3f 94 ee a6 bf
       0.38223884 0.6185034 0.87434477 -1.3041558
0001e0 f4 9c fc 3e 22 3a d7 3e 58 4b 86 c0 2d d3 b1 be
       0.49338496 0.4203654 -4.196697 -0.34731427
0001f0 4e d0 8b be d3 20 d7 bf 90 04 77 c0 dd d1 01 bd
       -0.2730736 -1.6806892 -3.8596535 -0.03169428
000200 4c 18 fe 3e 25 06 41 3d db d3 59 be 1f 3f a0 be
       0.49627912 0.047125 -0.21272223 -0.31298158
000210 b5 36 70 c0 2c 2f 89 3e 34 4c 14 3e 7a 15 41 c0
       -3.753339 0.26793802 0.14482194 -3.0169358
000220 0b db 5b be 2c 9e cb be 12 70 96 bf 11 c7 8a be
       -0.21470277 -0.39769113 -1.1752951 -0.27105
000230 7b 51 8d 3e 39 52 c8 be 9a 1c 01 c1 92 0c 70 bf
       0.27601227 -0.3912523 -8.069483 -0.9376918
000240 84 d2 04 bf b0 f7 a2 bd cf 27 9e c0 58 fb d9 3d
       -0.5188372 -0.07957399 -4.9423594 0.10643643
000250 cf d6 d9 3e d5 f0 8b 3d ba a3 06 c0 68 d7 80 bf
       0.42546698 0.068330444 -2.103743 -1.0065737
000260 f2 f7 ff be fd 37 92 bf 43 6d e8 3e 0c 2e a9 3d
       -0.49993855 -1.1423336 0.4539586 0.08260736
000270 b3 11 77 bf 21 25 f0 be ff c2 a2 c0 8c 0d 53 bf
       -0.9651138 -0.46903327 -5.086303 -0.82442546
000280 76 e1 70 c0 a9 3e 13 c0 66 87 8d bf fd 9b 0a be
       -3.763761 -2.3006995 -1.1056945 -0.13536067
000290 cd 1c d0 3e 56 d5 3b bd e3 f1 66 3f e7 04 e4 bd
       0.40646973 -0.04585775 0.9021284 -0.111337475
0002a0 6b 97 42 3f 70 45 fa 3c 66 3e 8e bf 77 4e 31 be
       0.76012295 0.030550689 -1.1112792 -0.17315088
0002b0 9d 6a 41 bf b1 f5 9d bf 79 50 88 c0 b7 66 b2 bf
       -0.75553304 -1.2340604 -4.2598233 -1.3937596
0002c0 cb 34 84 3f 59 c5 4c 3f 1f 97 5a c0 a0 7e a6 bd
       1.0328611 0.7998863 -3.4154737 -0.081296206
0002d0 af 0d 27 c0 73 35 99 c0 c7 c5 11 3e 26 cf eb 3d
       -2.6102102 -4.7877746 0.14235602 0.1151412
0002e0 97 17 a9 bf 35 26 27 c0 06 96 7c bf 88 53 3b 3d
       -1.3210324 -2.611707 -0.9866642 0.04573396
0002f0 ec 50 04 3e 89 c7 b0 3d 06 ac d3 3f bb 20 8f c0
       0.12921494 0.08631808 1.6536872 -4.4727454
000300 3a 00 84 c0 8c 1a df bf 4e 1a 9e 3e 77 26 a4 be
       -4.1250277 -1.7429976 0.30879444 -0.32060596
000310 c6 d7 9f be d1 47 0e bf 1e 43 15 c0 e8 98 eb 3e
       -0.3121931 -0.55578333 -2.3322215 0.46015096
000320 c3 56 7d bf 03 72 9d bf 48 87 76 be 99 39 2a be
       -0.9896051 -1.2300419 -0.24075043 -0.16623534
000330 e5 da df be fe b7 6a 3f ac 39 82 bf 38 33 2e c0
       -0.4372169 0.91687 -1.017385 -2.7218761
000340 c7 77 3e be 5e 45 ac bf 71 8f fa 3e 00 b0 ee 3c
       -0.18600379 -1.3458669 0.48937562 0.029136658
000350 d4 4a 7c c0 06 10 a6 3f 47 b7 64 be a5 72 d8 bf
       -3.9420671 1.297364 -0.2233554 -1.6909987
000360 0d 41 84 c0 54 45 b7 bc ff f8 6d bf 98 32 71 3d
       -4.132941 -0.022371925 -0.9295806 0.05888614
000370 a1 38 2d 3e 64 17 88 bf 17 37 08 c0 6d 99 88 3f
       0.16916133 -1.0632138 -2.1283624 1.0671822

L3.bias f4 [28]
000000 0b 28 43 3e cd 3a a6 bc 37 1c a7 ba c4 c2 88 3e
       0.19058244 -0.02029171 -0.0012749498 0.26711094
000010 9b 35 56 bf f2 e2 29 3e f1 ad 57 3d d0 21 3a bd
       -0.83675545 0.16590479 0.052656118 -0.045442402
000020 d6 5a ca bd f5 6a 4a 3e b5 0a 95 3e 31 58 c2 bc
       -0.09880607 0.19767363 0.2910973 -0.023723694
000030 64 9a 84 3d 33 44 af be 5a 58 44 be 01 e4 ba 3e
       0.0647476 -0.3423172 -0.19174328 0.36502078
000040 54 c3 02 bd b4 30 9b 3d a3 dc 51 be cf 2f 09 3e
       -0.03192456 0.07577649 -0.20494322 0.13397144
000050 bb e3 33 be bf 35 ac bd de 63 38 3f 29 24 87 be
       -0.17567341 -0.08408689 0.72027385 -0.26394776
000060 f5 8d 05 bf f7 27 0f bf 1e 90 68 be 0c 81 31 3d
       -0.52169734 -0.55920357 -0.22711226 0.04333596
