DataTrain.pth (torch, 10087 bytes, 6 tensors)

L1.weight f4 [8, 140]
0	0x3de18f8a	0.11013706
1	0xbf765d05	-0.96235687
2	0x3e230fcd	0.15923996
3	0x3df1ba06	0.11803059
4	0x3f3c6d12	0.7360393
5	0x3f5b27f1	0.8560782
6	0xbf3d9361	-0.7405301
7	0x3f53054d	0.82429963
8	0x3ead47ee	0.3384394
9	0x3f4ca154	0.7993367
10	0x3eb9ae43	0.36265764
11	0xbf1dfae3	-0.6171095
12	0xbf9c4f7a	-1.2211754
13	0x3f82bdde	1.0214193
14	0xbeadc50f	-0.33939406
15	0x3e5a6168	0.2132622
16	0x3eb600db	0.35547528
17	0x3f8f8e44	1.1215291
18	0xbf4c6720	-0.79844856
19	0x3ead80dc	0.33887374
20	0x3ed4e0b4	0.41577685
21	0x3ff954f6	1.9479053
22	0x3f95f61e	1.1715734
23	0x3f7134e7	0.9422135
24	0xbe871263	-0.26381215
25	0xbf97651e	-1.1827734
26	0x3f48f6fb	0.7850186
27	0xbf2d5e4d	-0.67722017
28	0x3f1f3337	0.6218752
29	0xbf50c3ca	-0.8154875
30	0x3eecc4ae	0.46243805
31	0xbf995688	-1.1979532
32	0xbfc1c020	-1.5136757
33	0x3ef58de6	0.47959822
34	0x3f4553f4	0.7708123
35	0x3f238e06	0.63888586
36	0x3f2b39c5	0.66885024
37	0xbf1bb3de	-0.6082133
38	0xbf15800f	-0.58398527
39	0x3f6dd8ca	0.9290892
40	0xbdaabc3b	-0.08336683
41	0xbe416fb8	-0.18890274
42	0x3c3ded24	0.011592183
43	0xbdae62fa	-0.08514972
44	0x3eb602e3	0.35549077
45	0x3f75c9b4	0.960109
46	0xbe31a403	-0.17347722
47	0x3e27060f	0.16310905
48	0xbf388dd2	-0.720914
49	0x3ee7f771	0.4530597
50	0x3fc0538b	1.5025495
51	0x3fb848e4	1.4397244
52	0x3cf68429	0.030092316
53	0x3dbec9a1	0.093158014
54	0x3e54e303	0.20789723
55	0x3fb1150c	1.3834548
56	0x3fc13bd0	1.5096378
57	0x3e6b6c2c	0.22990483
58	0x3f63dda4	0.8901007
59	0x3f1535e4	0.58285356
60	0xbf27a63c	-0.6548803
61	0xbf2e8967	-0.6817841
62	0x3f24a11f	0.6430835
63	0x3f91910a	1.1372387
64	0x3f5e0910	0.8673258
65	0x3f56220a	0.8364569
66	0x3f6c9c24	0.9242575
67	0x3dc477a9	0.09593136
68	0x3f56d44d	0.83917695
69	0x3fca0ad4	1.5784554
70	0x404c3a1e	3.1910472
71	0x3f1f24a1	0.62165266
72	0x3d83fd1e	0.06444763
73	0xbda3b363	-0.079932
74	0x4001c7a8	2.027811
75	0xbff532a8	-1.9156084
76	0x3ecf667c	0.40507877
77	0x3e6b6f51	0.22991683
78	0x3ecef3cc	0.40420377
79	0xbf09c7aa	-0.5382029
80	0xbf99c3bf	-1.2012862
81	0x3ee219f5	0.4416043
82	0xbf44add3	-0.76827735
83	0xbe251c0a	-0.16123977
84	0x3f6d963a	0.9280735
85	0x3fd2a4fc	1.6456599
86	0x3f8d8593	1.1056389
87	0x3e6adfb6	0.22936901
88	0xbe353cdd	-0.17698999
89	0xbea46dfa	-0.32115155
90	0xbe969e4b	-0.29417643
91	0x3ef89bc2	0.48556334
92	0xbf426ae6	-0.75944364
93	0x3f5443d7	0.82916015
94	0x3f3d613d	0.739765
95	0x3e92a7df	0.286437
96	0xbf4dd54c	-0.8040359
97	0xbf3e9c95	-0.74457675
98	0xbeb588d0	-0.35455942
99	0xbe75e88b	-0.2401449
100	0x3ee51b2d	0.44747296
101	0x3ee05f82	0.43822867
102	0x3fb26b83	1.393906
103	0x3f2ae1ae	0.6675061
104	0x3f8b36e5	1.0876127
105	0x3f7c2cb2	0.985057
106	0x3f68d131	0.909442
107	0xbee3fee5	-0.44530407
108	0x3f3d4e64	0.7394774
109	0x3fb32086	1.39943
110	0xbdbf9a4e	-0.09355603
111	0x3f546424	0.829653
112	0x3f18a594	0.5962765
113	0x3f04f8d7	0.519422
114	0x3eb47428	0.3524487
115	0xbec66d90	-0.38755465
116	0xbf9998b9	-1.1999732
117	0x3ecd4592	0.4009214
118	0x3ee0628f	0.43825194
119	0xbebb17d2	-0.3654161
120	0x3f6bbedc	0.92088103
121	0xbc7272b1	-0.014797852
122	0xbef7fd0e	-0.48435253
123	0x3d15ceea	0.03657428
124	0x3e325a07	0.17417155
125	0xbf4cee6f	-0.8005132
126	0xbe12a330	-0.14320064
127	0x3fd5400b	1.6660169
128	0x3fb1e469	1.389783
129	0x3cd6bfd0	0.02621451
130	0x3fc50c06	1.5394294
131	0xbf8e569d	-1.1120182
132	0xbf25ffcb	-0.64843434
133	0xbf274448	-0.65338564
134	0x3f27dd68	0.65572214
135	0xbdd9912d	-0.10623393
136	0xbe36cfec	-0.17852753
137	0x3f433306	0.7624973
138	0xbd3befd1	-0.045883004
139	0x3faa1dfd	1.3290402
140	0x3ed3d8e2	0.41376406
141	0xbf675f3b	-0.90379685
142	0x3e1caf05	0.1530114
143	0x3cf8bf97	0.030364795
144	0x3edf8755	0.43657938
145	0x3f178a59	0.59195477
146	0x3f47328e	0.77811515
147	0x3efa4a9c	0.48885047
148	0xbe012f6b	-0.12615745
149	0x3f69a039	0.91260105
150	0x3ebf02bf	0.37306783
151	0x3e9624b4	0.29324877
152	0x3eb4c81a	0.35308915
153	0x3ee7b2ca	0.45253593
154	0x3f025ef4	0.50926137
155	0x3dc9fba4	0.0986245
156	0xbee5898a	-0.44831496
157	0x3ec04671	0.37553743
158	0xbe899add	-0.26875964
159	0xbde321c1	-0.110904224
160	0x3e1dde05	0.15416725
161	0x3e29ab6a	0.16569296
162	0x3f8ef4aa	1.1168416
163	0x3edea8be	0.43488115
164	0x3eeca656	0.46220654
165	0xbf673b4d	-0.9032486
166	0x3eae859a	0.34086305
167	0xbe5b5d10	-0.2142222
168	0xbdfc525e	-0.12320398
169	0xbf0e9f29	-0.5571161
170	0x3ec33a0f	0.38130233
171	0x3efbeadc	0.4920262
172	0xbf686cd9	-0.9079109
173	0xbe23a558	-0.15981042
174	0x3ef9eea3	0.48814878
175	0xbdaa0cf7	-0.08303254
176	0xbd2e45e6	-0.04254713
177	0x3f869b4f	1.0516146
178	0x3f846ebd	1.0346295
179	0x3f655ac5	0.8959163
180	0x3f70a4d6	0.9400152
181	0xbf67515c	-0.9035852
182	0xbe4881bb	-0.19580738
183	0x3ef73d75	0.48289075
184	0x3daccb91	0.08437265
185	0xbeae4815	-0.3403937
186	0xbd8d1700	-0.068891525
187	0x3ec8943e	0.391756
188	0x3db19e41	0.08672763
189	0xbcbd3148	-0.023094788
190	0xbf682243	-0.9067728
191	0xbf68af71	-0.908927
192	0xbe2fb816	-0.17160067
193	0xbe9e6e82	-0.30943686
194	0xbeba9c8e	-0.36447567
195	0xbf681a68	-0.9066529
196	0xbf68b825	-0.9090598
197	0xbec635af	-0.38712832
198	0x3dd580af	0.10424935
199	0xbe0cfe90	-0.13768983
200	0xbf8a0794	-1.0783563
201	0xbf82f5cc	-1.0231261
202	0xbd9ba28a	-0.07599361
203	0x3f94e301	1.1631776
204	0x3f1cd069	0.6125551
205	0x3f158f57	0.58421844
206	0x3ecd63b4	0.4011513
207	0x3e8df69e	0.27727216
208	0x3f0c5631	0.5481902
209	0x3f8bc539	1.0919563
210	0x401d649a	2.4592652
211	0xbc2ad4e4	-0.010426734
212	0x3fc4e79f	1.5383185
213	0xbe2a1fa6	-0.16613635
214	0x3fe247c1	1.7678148
215	0xbfac9400	-1.3482666
216	0x3f070583	0.52742785
217	0x3f2f3645	0.68442184
218	0x3eca1e04	0.39476025
219	0xbf60769c	-0.87680984
220	0x3e93e80f	0.28887984
221	0x3e058a02	0.13040927
222	0xbf1ceede	-0.6130198
223	0xbe812154	-0.2522074
224	0x3ecb3e45	0.39695945
225	0x3f5b2801	0.85607916
226	0x3ecabc67	0.39596865
227	0x3d32a585	0.043614883
228	0xbd4addfb	-0.049528103
229	0xbee9716f	-0.45594355
230	0xbf677a6d	-0.9042118
231	0xbd85ccf6	-0.06533234
232	0x3dbb4e56	0.09145801
233	0x3f4b572f	0.79429907
234	0x3ec8032e	0.39064926
235	0xbee66b11	-0.4500356
236	0x3f256bda	0.64617693
237	0x3ddc4dad	0.10757003
238	0xbee96a82	-0.45589072
239	0xbf67e49b	-0.905832
240	0x3ee1bfc9	0.44091633
241	0x3d898155	0.06714121
242	0x3edf9369	0.43667153
243	0x3ec91d25	0.39280048
244	0xbe833595	-0.25626817
245	0x3f04c4c5	0.51862746
246	0x3eeae8ef	0.4588084
247	0xbe9a54fe	-0.3014297
248	0xbdabeb48	-0.08394486
249	0xbf6ad4be	-0.9173087
250	0xbe45c354	-0.19312793
251	0x3f3f885a	0.7481743
252	0x3e8fd585	0.2809259
253	0xbdbe20ef	-0.09283625
254	0x3dcd4918	0.10023707
255	0xbeaa59ca	-0.3327163

L1.bias f4 [8]
0	0x3f96d9ca	1.1785214
1	0x3f6686d5	0.9004949
2	0x3f14d45c	0.58136535
3	0x3f634ca0	0.88788795
4	0x3f74809f	0.9550876
5	0x3f82a34b	1.0206083
6	0x3f8ca5c8	1.0988092
7	0x3faca3fe	1.3487546

L2.weight f4 [8, 8]
0	0x3f946806	1.1594245
1	0xbf230cde	-0.6369151
2	0x3ea9fa42	0.33198744
3	0xbf1b245b	-0.6060235
4	0xbf84705a	-1.0346787
5	0x3ffa5137	1.9556035
6	0x3fcaf078	1.5854635
7	0xbe027f93	-0.12743978
8	0x3ff96bab	1.9485983
9	0x40038274	2.0548372
10	0xc00892d0	-2.1339607
11	0x40173b13	2.3629806
12	0x401c7071	2.4443629
13	0x3f36623c	0.71243644
14	0xbf3a1933	-0.726947
15	0x3f379af4	0.71720815
16	0x3eea9717	0.45818397
17	0x3fd8e635	1.6945254
18	0xbd58fd57	-0.05297598
19	0xbfad3af8	-1.3533621
20	0x3f913416	1.134402
21	0x4011d24a	2.27846
22	0x3f95a3f8	1.1690664
23	0xbf1565de	-0.5835856
24	0xbe87868d	-0.26469842
25	0xbf00cd6e	-0.5031346
26	0x3ce06364	0.027391143
27	0xbefd6877	-0.49493763
28	0xbfb13e29	-1.3847095
29	0xbed2c23e	-0.4116382
30	0x4015ad79	2.338713
31	0x4004e028	2.0761814
32	0x400e8868	2.2270756
33	0x4000664e	2.0062442
34	0x3f83155c	1.0240893
35	0x3ffcda2c	1.9754081
36	0xbf2727b4	-0.6529496
37	0xbffc4709	-1.9709178
38	0xbead311d	-0.33826533
39	0x4007f5e6	2.1243834
40	0xc009f574	-2.1556063
41	0xbfb75c76	-1.4325092
42	0x3f6c4b47	0.92302364
43	0x3f107155	0.5642293
44	0x3fed5e80	1.8544464
45	0x3fa84bed	1.3148171
46	0xbe5aee6b	-0.21380012
47	0x3f8e485f	1.1115836
48	0x3f28d7cb	0.65954274
49	0xbfbfc752	-1.4982703
50	0x3f1f700f	0.6228036
51	0xbfa00ecf	-1.2504519
52	0x400af8e0	2.1714401
53	0xbfaa40f1	-1.3301069
54	0x3f9b252a	1.2120717
55	0x3ed869ae	0.42268127
56	0x3e544aec	0.20731705
57	0xbeadea1c	-0.33967674
58	0x4038329a	2.8780885
59	0x3eba1e9d	0.3635148
60	0x3fcdc731	1.6076413
61	0x3f6d3fce	0.92675483
62	0xbef9776a	-0.48723918
63	0xbeb6b2db	-0.3568333

L2.bias f4 [8]
0	0x3ec5d301	0.38637546
1	0x3f670b20	0.9025135
2	0x3ec59653	0.3859125
3	0x3f3f7663	0.7479002
4	0x3f171319	0.59013516
5	0xbf21c392	-0.6318904
6	0x3be37282	0.0069411406
7	0x3f0efabe	0.5585135

L3.weight f4 [30, 8]
0	0xbef8afc5	-0.48571602
1	0x3db11298	0.086461246
2	0x3efa1801	0.4884644
3	0xc095b041	-4.6777654
4	0xbf88faea	-1.0701573
5	0x3f5ea163	0.86965007
6	0xbff1ff30	-1.8906002
7	0x3f6ffb75	0.9374307
8	0xbd368c77	-0.04456755
9	0x3f9deb84	1.2337499
10	0xbeabbb02	-0.33541113
11	0xc04f31db	-3.237418
12	0xbd5f3b4e	-0.054499917
13	0xbf3ea3ab	-0.7446849
14	0xc02ab524	-2.667306
15	0xbeea6d0d	-0.45786324
16	0x3f8b90f3	1.090361
17	0xc0456690	-3.084385
18	0x3f846724	1.0343976
19	0x3e1f0042	0.15527442
20	0xc0703cda	-3.753714
21	0x3e44d83e	0.19223115
22	0xbfabe5cf	-1.3429507
23	0x3e98f1a9	0.29871872
24	0xbd698832	-0.05701465
25	0xbded515b	-0.11587783
26	0x3efc4ce2	0.49277407
27	0xc0091789	-2.1420615
28	0xbf2da264	-0.67825913
29	0xbedf7e99	-0.43651274
30	0x3f603e96	0.875955
31	0x3f11286d	0.5670231
32	0xbf8e7a15	-1.1131006
33	0xbf9223f8	-1.1417227
34	0xbf364410	-0.71197605
35	0xbe30058f	-0.1718962
36	0xbf9c1c21	-1.2196084
37	0x3f3be1eb	0.733916
38	0x3fac1225	1.3443037
39	0x3f2221d5	0.63332874
40	0xbf945167	-1.1587342
41	0xc0263910	-2.5972328
42	0xc0935703	-4.6043715
43	0x3f4392d9	0.76395947
44	0x3e8d8bdc	0.27645767
45	0x3f8417dc	1.0319781
46	0xbd96d54a	-0.073649004
47	0x3e6d3f0d	0.23168583
48	0xbf125522	-0.5716115
49	0x3e03f1cd	0.12885208
50	0x3dff9a37	0.12480586
51	0xbdb93393	-0.0904304
52	0xbd9c79e6	-0.07640438
53	0xbee0122e	-0.4376387
54	0x3e44c3f3	0.19215374
55	0xbef0969c	-0.46989906
56	0xbfb7efa0	-1.4370003
57	0x3e84d9b7	0.25947353
58	0x3a6972b1	0.0008905335
59	0xc09c0488	-4.875553
60	0x3e9aa144	0.3020116
61	0xc08cb90f	-4.39759
62	0xbe4bbe5c	-0.19896835
63	0x3f645cf5	0.8920434
64	0x3ed3184d	0.41229478
65	0xbed4e2a0	-0.4157915
66	0x3f463419	0.77423245
67	0xc0509b95	-3.259496
68	0xc0709961	-3.7593615
69	0x3df59a32	0.11992301
70	0x3e37543d	0.17903228
71	0x3f9d8883	1.2307285
72	0xbf0be4ee	-0.54646194
73	0x3ea6c0d8	0.32569003
74	0xc05fb353	-3.49532
75	0xbf1cf3c8	-0.6130948
76	0x3f4fa8bc	0.81116843
77	0xbfa91cfc	-1.321197
78	0xc05ba6e7	-3.432062
79	0x3f12bd35	0.57319957
80	0x3e8b060b	0.27153048
81	0xbe3d321c	-0.18476146
82	0x3eed6b2b	0.46370825
83	0x3eb0d36c	0.34536302
84	0xc088b6ee	-4.2723303
85	0x3f298409	0.66217095
86	0x3f3cd820	0.7376728
87	0xbe438549	-0.19093813
88	0x3ea71a7c	0.32637393
89	0x3e5c8a4e	0.21537134
90	0xbea370fd	-0.3192214
91	0x3eddf661	0.43352035
92	0x3f2bd56e	0.6712254
93	0xbf8a6e93	-1.0814995
94	0xc0b862d6	-5.762065
95	0xbfb44932	-1.4084837
96	0xbce7f20f	-0.028313665
97	0x3f274898	0.65345144
98	0x3f608257	0.8769888
99	0xbff6fd32	-1.9296019
100	0x3e019b1f	0.1265683
101	0xc0967576	-4.7018385
102	0xbf457ef1	-0.7714682
103	0xbfd106ca	-1.6330197
104	0xc042da7f	-3.044586
105	0xbdc1928e	-0.09451781
106	0x3d44d75f	0.048056956
107	0xc0573e9c	-3.3631964
108	0x3f216a90	0.63053226
109	0xbeb9e3da	-0.3630665
110	0xc0646cee	-3.5691485
111	0x3f371d52	0.71529114
112	0x3f1e4d2e	0.61836517
113	0xc081aaea	-4.0521135
114	0xbf016c06	-0.50555456
115	0x3f10db1a	0.5658432
116	0xbfd7afd8	-1.6850538
117	0x3f87db19	1.0613738
118	0x3c55c77c	0.013048049
119	0x3ea13226	0.31483573
120	0xc0016a52	-2.0221143
121	0x3f78ee9f	0.97239107
122	0xc053b68f	-3.3080175
123	0xc049a538	-3.1507092
124	0x3f0bd4bb	0.54621476
125	0x3f2c6d7d	0.67354566
126	0xbf80645d	-1.0030628
127	0xbf41ad6d	-0.7565525
128	0xc04c0c58	-3.1882534
129	0x3d2fe658	0.042944282
130	0xc0579205	-3.3682873
131	0xc03389f1	-2.8052943
132	0x3d142c0a	0.03617481
133	0x3f8380cb	1.027368
134	0x3e7fe53b	0.24989788
135	0x3f66fa62	0.90225804
136	0xbf9b2519	-1.2120696
137	0xbf178d5e	-0.59200084
138	0xbeafea41	-0.3435841
139	0xbf0d7398	-0.5525451
140	0x3e5fd745	0.21859463
141	0x3efe547e	0.49673837
142	0xbfea4871	-1.8303357
143	0x3f39d658	0.7259269
144	0xbf2876e7	-0.6580643
145	0xbfa9ed68	-1.3275576
146	0xbefce2f2	-0.49391896
147	0x3fac05ff	1.343933
148	0xbf98add8	-1.1928053
149	0x3f3c57cf	0.73571485
150	0x3f6fe118	0.9370284
151	0xc05e41e0	-3.4727707
152	0xc0231a89	-2.5484946
153	0x3ee4f7c3	0.44720277
154	0xbf316ff6	-0.69311464
155	0xbfed0bc5	-1.8519217
156	0x3ed5ed84	0.41782773
157	0xbed62b4d	-0.4182991
158	0x3f143067	0.57886356
159	0xbe1386a6	-0.14406833
160	0x3e5ab4e9	0.21358074
161	0xbf8f73ac	-1.1207175
162	0xbf681a5f	-0.9066524
163	0x3ec0fc47	0.37692472
164	0x3db46938	0.088091314
165	0xbee44e0a	-0.4459079
166	0x3e2bd18f	0.16779159
167	0xbe21a309	-0.15784849
168	0xbfc244b9	-1.5177222
169	0x3e164198	0.1467346
170	0xc08b2cef	-4.349235
171	0xbe26c4f9	-0.16286077
172	0x3e4b0992	0.1982787
173	0x3e902d54	0.28159583
174	0x3f322b5e	0.69597423
175	0x3ded1fa5	0.11578301
176	0x3f239900	0.63905334
177	0xbf59d972	-0.8509742
178	0x3f2f6ae8	0.685225
179	0x3f22e45d	0.63629705
180	0xbfa06985	-1.2532202
181	0x3ea114c8	0.31461167
182	0xbffdd4d0	-1.983057
183	0xbf4c1837	-0.7972445
184	0xc00327c2	-2.0493016
185	0x3ee71261	0.4513121
186	0xc03e01e8	-2.9688663
187	0x3f85b11b	1.0444673
188	0x3f5516e1	0.83238035
189	0xbf85448d	-1.0411545
190	0xbfe083b5	-1.7540194
191	0xc028eed5	-2.6395772
192	0x3f57b94d	0.8426712
193	0xbfadb741	-1.357155
194	0x3ee22597	0.44169304
195	0xbfb082f4	-1.3789964
196	0x3e8596e4	0.26091683
197	0xbfa0282b	-1.2512258
198	0xc03b27c9	-2.9243033
199	0x3f2cbc3d	0.6747473
200	0x3f71b0f4	0.94410634
201	0x3efd0faa	0.49426013
202	0x3f8a0bcd	1.0784851
203	0xbf5c6013	-0.860841
204	0xc00063b4	-2.0060854
205	0xc0076e9e	-2.1161265
206	0xc030197f	-2.7515562
207	0xbf0cc4fc	-0.54988074
208	0x3c1ac3e0	0.009446114
209	0x3f3eb429	0.7449365
210	0xbea5f9c6	-0.32417125
211	0xbcf1832d	-0.029481495
212	0xbf82c941	-1.0217668
213	0x3e14354a	0.14473453
214	0xc0567dcb	-3.3514278
215	0xbe574d33	-0.21025543
216	0x3f83fad4	1.0310922
217	0xbed12769	-0.4085038
218	0x3f0e0782	0.55480206
219	0x3ea9d511	0.3317037
220	0xbf5f901b	-0.8732926
221	0xc0917aed	-4.5462556
222	0xbcd90594	-0.026491918
223	0xc088b4bc	-4.2720623
224	0xc025f32d	-2.5929673
225	0x3f88dc09	1.0692149
226	0xbfb01356	-1.3755901
227	0xbfdfa701	-1.747284
228	0x3f6358a0	0.88807106
229	0xc0846573	-4.137384
230	0xc0107242	-2.2569737
231	0xbf809ef5	-1.004851
232	0x3eb5f3c1	0.35537532
233	0xbe1122c9	-0.14173426
234	0xbfcb14c2	-1.586571
235	0xc0a5f6fb	-5.186399
236	0x3e85ce3c	0.26133907
237	0x3cfc90ce	0.030830767
238	0x3d49de55	0.049284298
239	0x3f771c5e	0.9652766

L3.bias f4 [30]
0	0x3e902d49	0.2815955
1	0xbdfa4d9c	-0.12221834
2	0x3db654de	0.08902906
3	0xbf5c2f3b	-0.8600957
4	0xbe9b387f	-0.3031654
5	0xbe6423d5	-0.22279294
6	0x3e2a1489	0.16609396
7	0xbc025b17	-0.007956288
8	0xbe9490e2	-0.29016787
9	0x3e9fb466	0.3119232
10	0xbd117239	-0.03550932
11	0xbeaaa74a	-0.33330756
12	0xbefe05a6	-0.49613684
13	0x3dcedb2b	0.10100397
14	0x3d448efe	0.04798793
15	0xbdce013f	-0.100588314
16	0xbec517a6	-0.38494605
17	0xbbb2d450	-0.0054574385
18	0x3f02cee1	0.5109692
19	0xbeefcbbd	-0.46835127
20	0xbe3e35c1	-0.18575193
21	0xbee96aae	-0.45589203
22	0xbe8cafcd	-0.27477875
23	0xbe6519cd	-0.22373123
24	0x3de1e3ae	0.110297546
25	0xbe17211e	-0.14758727
26	0x3ea3d6e0	0.31999874
27	0x3e14024b	0.14454
28	0x3eb02091	0.34399846
29	0x3e130db5	0.14360698
