DataTrain.pth (torch, 9319 bytes, 6 tensors)

L1.weight f4 [8, 127]
00000000: 284f d53f 385e 70be b9ef 053f b82d 8ebd
00000010: 10ca 04bd c3e4 173f bb64 d1be 3898 0fbe
00000020: 745f b43f 8b63 9e3e a612 903e 7921 9f3d
00000030: 8e27 213f e5fa 0b3e 28da 693f c864 933f
00000040: 3739 55bf 13e1 d53e 3b8a d7be a262 0bbf
00000050: 414c 7dbe 4ad6 08be e5de 253f d669 2abf
00000060: bf22 0a3e eeb4 003e 5dd9 6e3f 51cd 9a3e
00000070: 14df 4d3e 6121 80bd 68c5 613f 2331 0b3f
00000080: 61f3 233f 7330 b83f d1ca ac3f c8dc 753f
00000090: 9234 623f f5f7 e03d fd09 103f 23e5 1f3e
000000a0: 53ed 2cbf b977 1d40 64cd 4b3d 0eae 983e
000000b0: 59c8 f2ba 39b4 593f bcc9 983d 5ec8 e1bd
000000c0: 4745 fc3e d1b6 4c3e 4929 b8bc b4b3 93bb
000000d0: 9e7e 043f 3f90 27bf 92ff 8d3f e382 a9be
000000e0: 880b f0be 8fed 8d3f 4196 903f 4ae5 ee3e
000000f0: 037d e63e 5cbe a0bd 4813 083e 2543 c1bd
00000100: 36e9 84be a54f 983f 80db 5b3f 0c07 953f
00000110: 3095 e53e 2ef0 753f 23f2 293f baa0 acbe
00000120: 7041 c6be 03e1 793e 13a0 bfbe b26d 8a3f
00000130: 14ac 9b3e 80b4 81be 11ef 9fbd 2b40 93be
00000140: 4499 a6bd 73f2 393f f632 a33f 39c6 5c3e
00000150: 7649 6abc c8e5 4a3f 77ba 5a3f c357 1a3f
00000160: e36f 84bf 5097 483f 5716 a33f 87b5 db3e
00000170: ea03 803e 5ace 203f 3261 b13e 4b5a d23f
00000180: ce4b 343d 9313 debd 0073 3f3f 922a c83f
00000190: f7ff f93e c182 2e3f 2206 ccbe 7f38 5dbe
000001a0: d28e fd3e 0b15 cfbf c395 163f a540 5fbf
000001b0: 6e76 48bd 98cb cc3f 6db2 3f3e 0b5d 9f3d
000001c0: 409f e7be 005f 06bf a733 df3e 0e50 cf3f
000001d0: 268b 993f ad22 be3f af7b a33f aead 2fbf
000001e0: 9ee1 30bf e444 9c3f cbb3 a9bf 8c19 a6bc
000001f0: 2664 083e af6d 933f 93b1 56bf 51d5 b03f
00000200: d8aa 63be 7737 323e ba47 7c3f aa3f 4a3f
00000210: f6b8 163f 9ce9 673f abc4 3a3f d988 adbe
00000220: 6c66 b63f 8c04 c53f 08ac 6b3f 8426 b9be
00000230: d9b5 9b3e 523d a73e 2ca7 31bf aa2c 97bf
00000240: b9b5 b43d dc37 523d c92f 7bbf 4971 843e
00000250: 4eb6 5a3f ae13 73be 249a 933f 5c12 c0be
00000260: 3b90 993d 1231 babd 6d9c 22ba 42f0 b83f
00000270: 056b fd3f fb65 d3bd b2f0 803f e8cd 713f
00000280: ad67 cd3f 075d d13f a542 2abf 22f4 743f
00000290: f116 7fbf ec92 32bf 7a85 39bc ed9c 773e
000002a0: c607 12bf 02c1 083f 8c0c 6cbe 0c9b 4e3f
000002b0: 3fbf 17be 4d3f b33f e46d b13f 2124 0b3f
000002c0: 3ebd 2c3f d25b ae3f 9344 b93f 8c7e f83e
000002d0: d522 00bf 9d9a 0fbe 808e 91bf 8015 96bf
000002e0: 9aca 3b3d 6979 3dbf c627 98bf ddfa 97bf
000002f0: eb2e 533f 13cf fa3e 1ec0 4a3f e751 923f
00000300: f08a 88bf cf34 50bd 0ce8 1a3f e4d4 32bf
00000310: 7cae 1abf 818f d53f cb8f d6be d829 bfbe
00000320: 5aae b1be 7f73 b83e 2552 9f3f c395 d53e
00000330: 87d9 8f3e 83a9 453f 1744 e8bd 3e15 143f
00000340: 720b a0bc 9dbd d33d a768 353f cafb 3b3f
00000350: c341 e6be 7201 ba3e 4c81 083f ad23 55be
00000360: e07a d6bd 2ddf db3d 945f 8fbe fb91 0d3e
00000370: 48b4 18bf 4eb6 abbe 04c7 ecbe 1512 693f
00000380: 50ea 573f 40d7 f53c 48e0 8f3f bc33 32bf
00000390: 1462 f6be 36b6 e53f d258 583e 709b ee3b
000003a0: 6ec5 6abf dad1 6bbe afbb 103f 2aa2 963e
000003b0: 914c e43f 3c76 8abe 4489 073f a35b 293f
000003c0: 8e0c 9a3e 449b 2abf 4b58 8e3f 1db2 793f
000003d0: 821a 98bf 48a2 9f3f b5ab 29bf 6762 1bbf
000003e0: 8b31 6b3f 0fb0 dbbe 7218 033f f2dc 973e
000003f0: c2a7 223f 8c98 413f 975c b63d 64dd 363e
1.6664782 -0.23473442 0.5231891 -0.06942314 -0.032419264 0.5933344 -0.40897164 -0.1402291
1.409163 0.3093532 0.28139228 0.07770056 0.6295098 0.13669927 0.91348505 1.1515131
-0.8329043 0.4177328 -0.4209765 -0.54447377 -0.2473612 -0.13362995 0.64793235 -0.6656774
0.13489817 0.12569019 0.9330042 0.3023477 0.20104629 -0.062563665 0.88191843 0.5437185
0.6404324 1.4389786 1.3499395 0.9604001 0.88361466 0.10984794 0.5626524 0.15614752
-0.6754963 2.4604323 0.049756423 0.29820293 -0.0018522843 0.8504062 0.07460353 -0.11024545
0.49271604 0.19991614 -0.022480624 -0.0045075063 0.517557 -0.6545448 1.1093619 -0.3310767
-0.46883798 1.1088122 1.1295854 0.4665931 0.4501725 -0.07848808 0.13288605 -0.09436635
-0.25959176 1.1899306 0.85881805 1.1642776 0.44840384 0.9606961 0.66385096 -0.33716375
-0.387218 0.24402241 -0.37426814 1.0814726 0.30404723 -0.25333023 -0.0780927 -0.28759894
-0.08134702 0.72635573 1.2749927 0.21559991 -0.014299741 0.7925687 0.8544077 0.60290164
-1.0346645 0.78355885 1.2741193 0.42911932 0.25002986 0.6281487 0.34644467 1.6433805
0.044017605 -0.10843577 0.7478485 1.5637991 0.48828098 0.68168265 -0.3984843 -0.21603583
0.49523026 -1.6178297 0.5882227 -0.87208015 -0.04894107 1.5999632 0.18720408 0.077814184
-0.45238686 -0.5248871 0.43594095 1.6196306 1.199559 1.4854332 1.277212 -0.6862439
-0.69094265 1.2208524 -1.3257993 -0.020275854 0.13319454 1.1517848 -0.83864707 1.3815099
-0.2223314 0.1740397 0.98546946 0.79003394 0.5887598 0.90590835 0.7295634 -0.3389347
1.4250007 1.5392013 0.92059374 -0.36162198 0.30412176 0.3266397 -0.6939571 -1.1810505
0.08823723 0.051322803 -0.9811979 0.2586768 0.85434425 -0.23737976 1.1531415 -0.37514007
0.07498213 -0.09091391 -0.0006203119 1.4448321 1.9798285 -0.103221856 1.0073454 0.94454813
1.6047264 1.6356515 -0.6650794 0.9568502 -0.9964438 -0.69755435 -0.011323327 0.24180956
-0.5704311 0.53419507 -0.23051661 0.8070533 -0.14819048 1.4003693 1.3861661 0.54352003
0.6747626 1.3621771 1.4474052 0.48534048 -0.5005315 -0.14023824 -1.1371613 -1.1725311
0.045847513 -0.7401338 -1.1887138 -1.1873432 0.82493466 0.4898611 0.791994 1.1431245
-1.06674 -0.050831612 0.60510325 -0.69856095 -0.6042249 1.6684419 -0.4190658 -0.37336612
-0.34703332 0.36025617 1.2446944 0.41715822 0.28095648 0.7721178 -0.11341112 0.57844913
-0.019536708 0.103389 0.7086281 0.73431075 -0.44972047 0.36329228 0.5332229 -0.2081439
-0.10472655 0.10735927 -0.28002608 0.13825218 -0.5965009 -0.33537525 -0.46245587 0.91043216
0.8434191 0.030009866 1.124032 -0.6961019 -0.48121703 1.7946231 0.21127632 0.007281713
-0.91707504 -0.23029271 0.5653638 0.29420596 1.7835866 -0.2704333 0.52943826 0.6615545
0.30087703 -0.66643167 1.1120695 0.97537404 -1.188309 1.2471399 -0.6627763 -0.60697025
0.9187247 -0.4290776 0.51209176 0.29660755 0.6353723 0.75623393 0.08904379 0.17857891

L1.bias f4 [8]
00000000: aaf8 7f3f faff 933f b868 7e3f d28c 723f
00000010: 73b8 7b3f 329f 4b3f a5f2 5a3f d229 803f
0.99988806 1.1562493 0.9937854 0.94746125 0.9832832 0.7953979 0.85526496 1.0012763

L2.weight f4 [8, 8]
00000000: f4a0 6e3f 876c 5e3f d813 523f 4fc3 c13f
00000010: d747 aebf feb6 0340 b6d9 f3bf 772e 923f
00000020: 7f15 6c3f 8081 f0be 9ceb 08c0 6c04 a53f
00000030: f4bb 0f3f 1563 e23f 627a 953f d2eb 393e
00000040: 296b ae3f 36e1 9a3f 51f4 4dbf 7da0 cebe
00000050: c6bf 993f 1a86 11bf c80d 86bf 8b11 0940
00000060: 59cc afbf 91cd f7be 3779 1d40 8b91 1040
00000070: 7f14 213f db8a 8ebf 1026 1e3f ed6c 0c40
00000080: 5208 593f d15e f93f 50ae 9abf e275 633f
00000090: 764c cc3f 43f3 91bf 8b3c 0540 4d8d 65bd
000000a0: d7e1 593f 899f 1040 517f bc3f 12db 893e
000000b0: 1e50 ccbf 4f04 923f 8810 ee3f 2ffe b6bf
000000c0: b6a6 85be ee3f 04be 3678 403d c6c2 95be
000000d0: 8c1c af3d df32 423e f7e5 56bd fe4d 35be
000000e0: dc0e e93f 721e adbf ae00 0240 6afb 40bf
000000f0: 594a 1940 1d3c cf3f 552a 4fbf 4a85 813e
0.93214345 0.8688435 0.8206153 1.5137728 -1.3615674 2.058044 -1.9050815 1.142043
0.922203 -0.469738 -2.1393805 1.2891974 0.5614617 1.7686487 1.1677973 0.18156365
1.3626453 1.2099979 -0.8045092 -0.40356818 1.201165 -0.5684525 -1.0472956 2.1416957
-1.3734237 -0.48399022 2.4605234 2.2588832 0.629219 -1.1136125 0.6177683 2.1941483
0.8477832 1.9482061 -1.2084446 0.8885175 1.5960834 -1.1402363 2.0818202 -0.056042958
0.8511023 2.2597373 1.4726354 0.2692495 -1.596195 1.1407565 1.8598795 -1.4296321
-0.26103753 -0.12915012 0.046989642 -0.29250163 0.08550367 0.18964718 -0.052465405 -0.17705533
1.820766 -1.3524916 2.0312915 -0.7538363 2.3951628 1.619022 -0.8092397 0.25297004

L2.bias f4 [8]
00000000: c2a7 963e 7831 e83e 86eb 0d3f eef3 0b3f
00000010: 8c1d e63e a857 ea3e 1f26 bfbd d464 143f
0.29424864 0.45350242 0.55437505 0.5466908 0.44944417 0.4577 -0.09333443 0.5796635

L3.weight f4 [27, 8]
00000000: 81f8 2e3f 8bd8 77c0 b47b af3e a116 cb3d
00000010: 9ddb c4be 1821 6b3e 8ba2 893e 571b 86bf
00000020: 69d5 bcbf e7dc 04c0 e174 9dbf 0058 963e
00000030: dc6b 123f 6109 5d3f b5a6 a43e b3d7 31bf
00000040: 5f83 64bf 6c57 a23f d819 6ebf 8108 793e
00000050: 4850 14bd 6c0f 11c0 34d2 e63d acb5 d0bd
00000060: 6e33 48c0 45b9 02c0 60bf ddbe cbdd 303f
00000070: ec51 20be 14ff 34bf cc4c 613e c1a1 473f
00000080: 3727 713f 102f d8bf 4a8a 40c0 b85b 1f3e
00000090: e5c3 cabf 5504 603f 3110 253e 0153 28bf
000000a0: 5cf1 7c3f 1f92 5fbe 8d63 803f f5da 1ebf
000000b0: d75a 10bf 9df2 24bf 7b45 13be a21d 0ec0
000000c0: 618f e8be 99b5 5b3e 2e18 e63e 392d a2bf
000000d0: dba4 b03d 5447 0c3f 5f74 2dbe e1da f2be
000000e0: d9cd 393f 7bd7 313f b76a 073f bb0b 89bf
000000f0: ff1c 39bf 8643 40c0 a92f 10bc ecaf 3b3e
00000100: 31e9 61c0 559c 463f bb77 26c0 f036 babe
00000110: 0ce0 743e ff28 3bbd ce82 28be ae38 353f
00000120: 597d 033f 8280 e93d 7edb 2ec0 b73f a4bf
00000130: 5692 6bbf c421 ec3e 1980 94bb ccc4 ab3e
00000140: c5f5 a4bd abec 0f3f df39 5cc0 bed1 6c3f
00000150: 06f3 38bf 4742 86be d482 d73c 5a19 25bf
00000160: 6a08 9b3d f0e2 92bf 1e92 883d 35c7 3cbd
00000170: 87f7 0bc0 4bcb 13c0 7c4a 583e 6b47 8f3f
00000180: 8737 1ac0 4bdd 353f 0f21 fe3e 87fa 6cbf
00000190: f893 e93d b965 41c0 6b34 38be 9848 3f3f
000001a0: 89bc f3bf d257 5f3a 2504 353f 419b 74c0
000001b0: 1189 283f 4c84 46bf 766c fcbd f82b fa3e
000001c0: 0e32 f2be 599f bb3e 8a5e 5d3f 3985 66be
000001d0: f453 063f 2b0c d8bf 0a5d 5a3d 85dc a8bf
000001e0: d76b 243d d8bb d7bf 9965 48c0 634e 313f
000001f0: c900 3fc0 57e0 44be b8f4 56bd 9e58 543f
00000200: 5898 773f 9e3d 12bf 508f 2cbf d482 5e3f
00000210: 19c0 37c0 d2da 31bf a458 7f3e ef27 a7bf
00000220: b011 48be 8a87 28bf f5c0 1f3f 9560 adbe
00000230: 70bd 8ebe d3e4 22bf fe28 3cbe 78ea 3d3e
00000240: 48ce 273e 5314 153f 9af6 5dbf 312d 12c0
00000250: 6ea0 b83e f95a 363f ddc4 923e a7c2 c3bf
00000260: 998e 303f cc8c 38bf 8e0f 053f 1072 4cbf
00000270: 5d14 14c0 878b 873e 9227 2abe c985 113e
00000280: f049 87bd e562 b4bf bc75 883e e061 573f
00000290: c661 07bf ddf5 03c0 9948 9fbe aa36 15bf
000002a0: 07b5 4b3f 1ee4 863f 54cc 55bf 3373 60c0
000002b0: e7d9 67c0 7e7b 34ba 1590 abbe 4cb4 0d3f
000002c0: 69db 3cc0 6528 ecbd 13f9 333f da36 dbbe
000002d0: 464f 5f3f 825e 8b3e f3b9 acbc fade 46c0
000002e0: 3d04 13c0 5e06 683f 5293 1fbf 4ec0 803f
000002f0: 1237 863e a783 8fbf 55cd f0bd 0207 1bc0
00000300: 1a71 8c3f 3f84 73be 9240 453f 9dfd 71c0
00000310: e862 42be 5258 57bf d194 843e 144f 063e
00000320: 677e 23be c972 95be a59b e5bd bf92 14c0
00000330: 3e67 fbbe b845 86bf 3303 8ebe ea3b b03f
00000340: 21d9 a13d 558d 43bf 1f6e 58bf cca8 5c3f
00000350: da2c c4bb 4300 233e e169 2f3e 1e28 81c0
0.68347937 -3.8725917 0.34274065 0.099164255 -0.38448802 0.22961843 0.26881823 -1.0477093
-1.4752628 -2.0759828 -1.2301294 0.29364014 0.5719583 0.86342436 0.32158437 -0.69469756
-0.89262956 1.2682929 -0.93008184 0.2431965 -0.036209375 -2.2665663 0.11270562 -0.10190901
-3.128139 -2.042558 -0.4331007 0.6908843 -0.1565625 -0.7070172 0.22001952 0.7798119
0.9420046 -1.6889362 -3.0084405 0.15562332 -1.5841032 0.8750661 0.16119458 -0.65751654
0.98805785 -0.21833085 1.003038 -0.6205285 -0.5638861 -0.644327 -0.14381973 -2.2205586
-0.4542189 0.21455993 0.44940323 -1.2670051 0.08625194 0.5479634 -0.16938923 -0.47432616
0.72579724 0.6946942 0.5289721 -1.0706705 -0.7230987 -3.0041213 -0.008800426 0.18328828
-3.5298579 0.77582294 -2.6010578 -0.3637004 0.23913592 -0.045693394 -0.16456148 0.7078961
0.5136314 0.11401464 -2.7321467 -1.2831944 -0.92020166 0.4611951 -0.004531872 0.33548582
-0.08054689 0.562205 -3.4410322 0.9250754 -0.72245824 -0.2622244 0.0263075 -0.6449181
0.07569964 -1.1475506 0.06668495 -0.046088416 -2.1869829 -2.309283 0.21122164 1.119367
-2.4096391 0.7104079 0.49634597 -0.92569774 0.11405176 -3.0218337 -0.17988746 0.74720144
-1.9041911 0.0008519861 0.7070945 -3.821976 0.65834147 -0.7754562 -0.12325375 0.4886167
-0.47303814 0.3664501 0.8647238 -0.22511758 0.5247185 -1.6878713 0.053311385 -1.3192297
0.040141907 -1.68542 -3.131201 0.69260234 -2.984423 -0.19226204 -0.052479476 0.8294772
0.96716833 -0.5712527 -0.6740618 0.8691838 -2.8710997 -0.6947452 0.24936157 -1.3059062
-0.19537997 -0.65831816 0.62403804 -0.3386275 -0.27878904 -0.6363041 -0.18375012 0.18546474
0.16387284 0.5823414 -0.8670441 -2.2840083 0.36059898 0.71232563 0.2866582 -1.5293778
0.68967587 -0.7208984 0.5197686 -0.79861546 -2.3137429 0.26473638 -0.16616657 0.14211191
-0.06605899 -1.409268 0.26652324 0.8413372 -0.52883565 -2.0618813 -0.31110075 -0.58286536
0.795731 1.0538366 -0.83514905 -3.5070312 -3.6226747 -0.0006884857 -0.33508363 0.55353236
-2.9508917 -0.11531142 0.7030193 -0.42815286 0.87230337 0.2722054 -0.021084761 -3.1073594
-2.2971337 0.90634716 -0.6233417 1.0058687 0.2621389 -1.1212052 -0.11757914 -2.4223027
1.0972016 -0.23780917 0.7705165 -3.7811043 -0.18983042 -0.8411914 0.25894788 0.13116103
-0.15966187 -0.29189137 -0.112113275 -2.3214567 -0.49102205 -1.0490026 -0.27736816 1.3768284
0.07902742 -0.7638753 -0.8454303 0.86195064 -0.005986792 0.15918069 0.17130233 -4.036147

L3.bias f4 [27]
00000000: 5e4f 93bd 664f 9b3e 4488 293e 9351 b83e
00000010: 332e 16be 34ab fbbe b54b e23e fa8f f1bd
00000020: d966 a13e f96d 3ebf c24b 3a3e 18c7 9bbe
00000030: b95a bb3d f5ca d7bd 5558 67bf b526 213e
00000040: 806a bd3d 4ee4 93be d03d b43d 232f d0be
00000050: 518e 013e 5f5d 89bd 1a1f 31be 71d5 8ebe
00000060: 99c5 b4bd d551 ee3e 8c40 9c3d
-0.071928725 0.30334014 0.16555887 0.35999736 -0.14666061 -0.49154055 0.44198385 -0.117950395
0.3152378 -0.74386555 0.18192962 -0.30425334 0.09148163 -0.10536758 -0.9036916 0.15737422
0.09248829 -0.2888512 0.08800852 -0.40660962 0.12651946 -0.06707262 -0.1729702 -0.27897218
-0.08826751 0.46546808 0.07629499
