DataTrain.pth (torch, 5735 bytes, 6 tensors)

L1.weight f4 [8, 61]
0.122228704 -0.11951608 -0.37528104 1.4385365 -0.53996474 -0.8346683 0.23982614 -0.01587931
-0.1557387 0.4452127 0.030042188 0.7490213 0.3593836 -0.54004216 -1.0391634 0.38689888
0.4113128 0.37663537 0.3527446 1.0906752 -0.0027377682 -0.15577194 0.13834053 -0.1369264
0.29471648 -0.6503082 0.978837 0.88963217 0.56144977 1.0287023 0.92009693 -0.28079003
-0.27342153 0.62749976 -0.15595312 0.556899 0.20681524 -0.018795162 -0.10413756 0.45805806
-0.64395636 -0.13993694 -0.10302562 0.07112766 0.08829888 -0.38376346 -0.1537772 -0.20411696
-1.1701033 -0.1450204 0.71284384 -0.08184309 -0.14051859 -0.10629348 -0.223823 0.643835
-0.5391239 -0.16341554 1.0166807 0.5728553 1.4965158 0.3331491 0.65875185 0.5527542
-0.011957402 0.68321514 0.9293957 0.21437258 0.009768641 -0.2046418 0.24150784 -0.7655329
-0.6456121 -0.2635553 0.6211856 0.15590152 0.5022496 -0.10226021 0.42471015 0.4578406
-0.7535102 0.7983212 -0.20337912 0.36719778 0.50710857 0.13632432 0.35934347 -0.7691427
-0.766662 -0.47594273 -0.7687699 -0.7672245 -0.499224 0.523349 0.6572592 -0.20371157
-0.66716236 0.09136388 0.2715056 -0.239063 0.12223314 0.4506816 -0.2677997 0.5096474
-0.19183433 0.015811952 -0.5631855 -0.20399392 -0.26820225 1.1494696 -0.07668291 -0.12325231
0.05288022 -0.12694126 0.46738225 -0.27072135 0.5041169 -0.7677016 1.1037753 0.40474293
0.60254985 0.11520545 0.5112785 0.8312473 0.29273906 0.10473165 -0.02130483 0.28582245
0.3212697 0.23916778 0.81454897 0.38669285 -0.66623145 -0.25180706 -0.6279253 0.041185934
0.5232759 0.71890664 0.49660885 0.7985465 0.7804535 -0.47398725 0.98944134 0.51101977
0.40113068 0.28075713 0.31790954 0.3326391 -0.50124633 -0.5971873 0.51987827 -0.46274605
-0.50799453 -0.45674184 0.24659812 0.87179893 0.48856968 -0.32333916 -0.02152463 -0.48423845
-0.107799925 0.0029336177 0.25958538 -0.27319947 0.6284703 -0.11620886 0.023995955 0.8393251
0.5692878 -0.18791413 1.1490225 -0.15417808 -0.61317617 0.4811929 0.41270456 0.40231052
-0.17648454 0.7087594 -0.6707732 1.174686 -0.11196432 0.9085518 -0.72673374 0.30398884
0.66010225 -0.1986085 0.33879757 -0.48427984 -0.4834327 0.4016324 0.1746363 1.0864751
0.4647561 -0.3826337 -0.1010065 -0.7175187 -0.48427933 -0.3311624 0.48869026 0.64987135
0.4035403 0.4517934 0.17010619 0.7435441 0.76357776 0.26426366 -0.115648076 0.3723782
-0.31234345 1.0653372 0.99071205 0.43262804 0.87432957 1.0665926 1.0917721 0.24062434
0.91684216 0.579357 -0.042522587 0.05717409 -0.10259405 -0.0103164 0.0020512328 -0.26234534
0.789866 0.7612257 0.5655233 0.047055542 1.3350838 0.6160183 0.8403741 0.03610882
0.3827878 -0.017664881 0.02660105 0.3689821 0.2686753 -0.06472485 0.5080456 1.3548968
1.1031609 0.115040146 0.9893401 -0.17779902 -0.027411835 0.5958573 0.22099857 -0.6863717
1.2024678 1.3340161 0.39676088 0.18295154 -0.21667218 0.46994683 -0.64317816 -0.09147141
00000000: 0b53 fa3d d9c4 f4bd d624 c0be f721 b83f
00000010: 213b 0abf d2ac 55bf fc94 753e 5415 82bc
00000020: f779 1fbe ebf2 e33e 091b f63c dcbf 3f3f
00000030: 2101 b83e 3440 0abf 4e03 85bf 9c17 c63e
00000040: 9797 d23e 5ad6 c03e f19a b43e 3f9b 8b3f
00000050: 216c 33bb ae82 1fbe 24a9 0d3e 6f36 0cbe
00000060: 14e5 963e 997a 26bf 1095 7a3f efbe 633f
00000070: 2cbb 0f3f 84ac 833f 798b 6b3f b6c3 8fbe
00000080: e8fd 8bbe d3a3 203f 2db2 1fbe ef90 0e3f
00000090: 60c7 533e 50f8 99bc 1346 d5bd 9686 ea3e
000000a0: 53da 24bf a14b 0fbe 19ff d2bd 61ab 913d
000000b0: 0bd6 b43d a57c c4be c577 1dbe 0904 51be
000000c0: f2c5 95bf 3a80 14be ef7c 363f 5a9d a7bd
000000d0: 1be4 0fbe 65b0 d9bd db31 65be 5fd2 243f
000000e0: 0604 0abf 6756 27be 9822 823f a5a6 123f
000000f0: d48d bf3f 8592 aa3e f6a3 283f 4d81 0d3f
00000100: fbe8 43bc 30e7 2e3f e0ec 6d3f 7c84 5b3e
00000110: a60c 203c 9f8d 51be d54d 773e f7f9 43bf
00000120: d646 25bf b8f0 86be 0506 1f3f a6a4 1f3e
00000130: 6e93 003f cd6d d1bd 9c73 d93e 156a ea3e
00000140: 0be6 40bf c75e 4c3f 9e42 50be 5901 bc3e
00000150: ded1 013f 9a98 0b3e defb b73e 89e6 44bf
00000160: f643 44bf c4ae f3be 1bce 44bf d368 44bf
00000170: 4a9a ffbe 33fa 053f 2442 283f c499 50be
00000180: 27cb 2abf fc1c bb3d c802 8b3e eecc 74be
00000190: 5e55 fa3d bdbf e63e 0b1d 89be 4178 023f
000001a0: 3870 44be 1188 813c ed2c 10bf c8e3 50be
000001b0: ce51 89be d221 933f ee0b 9dbd b56b fcbd
000001c0: ee98 583d e4fc 01be ba4c ef3e fd9b 8abe
000001d0: ce0d 013f 1888 44bf 8248 8d3f 773a cf3e
000001e0: b540 1a3f d6f0 eb3d 26e3 023f a0cc 543f
000001f0: e5e1 953e 8c7d d63d 7887 aebc 5257 923e
00000200: 767d a43e 66e8 743e 4886 503f 9bfc c53e
00000210: 258e 2abf dbec 80be b6bf 20bf 95b2 283d
00000220: 69f5 053f 440a 383f 8443 fe3e 8b6d 4c3f
00000230: cdcb 473f 75ae f2be 074c 7d3f 31d2 023f
00000240: 0061 cd3e 66bf 8f3e 0ac5 a23e ac4f aa3e
00000250: ae51 00bf 44e1 18bf be16 053f 0ded ecbe
00000260: ee0b 02bf 11da e9be 3884 7c3e 372e 5f3f
00000270: ce25 fa3e b68c a5be 6c54 b0bc 1aee f7be
00000280: 35c6 dcbd f041 403b 60e8 843e cde0 8bbe
00000290: 6ee3 203f e9fe edbd 2a93 c43c 02de 563f
000002a0: d8bc 113f 906c 40be 2b13 933f dce0 1dbe
000002b0: 1df9 1cbf ea5e f63e 034e d33e a5fb cd3e
000002c0: 5db8 34be 4271 353f cbb7 2bbf 1c5c 963f
000002d0: 8d4d e5bd da96 683f 390b 3abf 6da4 9b3e
000002e0: 76fc 283f 0760 4bbe e076 ad3e 87f3 f7be
000002f0: 7e84 f7be c3a2 cd3e dcd3 323e 9e11 8b3f
00000300: 83f4 ed3e 90e8 c3be 7fdc cebd 4eaf 37bf
00000310: 76f3 f7be 1e8e a9be 9c35 fa3e f85d 263f
00000320: d69c ce3e 7751 e73e 5130 2e3e e858 3e3f
00000330: d579 433f 914d 873e e6d8 ecbd 5ba8 be3e
00000340: 7beb 9fbe f85c 883f 4e9f 7d3f 6c81 dd3e
00000350: 10d4 5f3f 1b86 883f 30bf 8b3f 3a66 763e
00000360: 2bb6 6a3f be50 143f 2a2c 2ebd 612f 6a3d
00000370: d41c d2bd 1e06 29bc fa6d 063b 2152 86be
00000380: a834 4a3f b0df 423f 23c6 103f 50bd 403d
00000390: 07e4 aa3f 60b3 1d3f c222 573f d8e6 133d
000003a0: c3fc c33e f1b5 90bc 72ea d93c 39eb bc3e
000003b0: cf8f 893e 768e 84bd 470f 023f 426d ad3f
000003c0: 6034 8d3f 2b9a eb3d 6545 7d3f f210 36be
000003d0: c98e e0bc 1b8a 183f 734d 623e 0eb6 2fbf
000003e0: 77ea 993f 0ac1 aa3f 3e24 cb3e a657 3b3e
000003f0: 50df 5dbe df9c f03e 53a7 24bf 5d55 bbbd

L1.bias f4 [8]
0.50728613 0.7644083 0.7248601 0.45935556 0.71582836 0.85062057 0.8704272 1.0493327
00000000: 81dd 013f 43b0 433f 6e90 393f a730 eb3e
00000010: 8740 373f 45c2 593f 51d4 5e3f 8950 863f

L2.weight f4 [8, 8]
-0.3418156 0.25979954 -0.32600975 -0.29018533 0.058076296 0.06918341 -0.15526205 0.00038174595
1.5143731 0.8617091 0.30297673 0.29300234 0.48267773 -1.4289868 1.0261743 -0.0696728
0.84791607 -1.6034513 -0.41953993 0.66905576 1.7436812 -0.004242349 1.1535339 0.29429662
-0.8664497 1.8555664 1.6169075 0.75685596 2.0142806 0.85398257 0.7683297 -0.04649778
-1.2896371 0.37296098 0.2557086 -0.46808612 0.23587392 1.6684332 0.73857635 1.6144204
-0.45892483 -0.9643527 0.87629676 0.717749 -1.1409506 1.0967789 0.35300377 1.8018739
0.27462912 -1.6426655 0.35514653 1.2123829 0.2196781 0.77617306 0.55290884 -0.23359405
1.9912122 -0.24714947 1.4309089 1.323472 -1.1595196 -0.1421843 1.4974177 -0.78600496
00000000: 7402 afbe 7204 853e c0ea a6be 2c93 94be
00000010: 69e1 6d3d 08b0 8d3d 04fd 1ebe 1325 c839
00000020: fad6 c13f f898 5c3f c41f 9b3e 6704 963e
00000030: 8921 f73e 0ae9 b6bf ae59 833f 9db0 8ebd
00000040: 0711 593f e43d cdbf f0cd d6be 3d47 2b3f
00000050: f230 df3f 6703 8bbb 00a7 933f 0cae 963e
00000060: a6cf 5dbf 3383 ed3f d3f6 ce3f 50c1 413f
00000070: f9e9 0040 9a9e 5a3f 41b1 443f 7574 3ebd
00000080: d412 a5bf bef4 be3e 3dec 823e fca8 efbe
00000090: ef88 713e 388f d53f 5713 3d3f 54a5 ce3f
000000a0: 32f8 eabe d2df 76bf fc54 603f 66be 373f
000000b0: ab0a 92bf 4063 8c3f e9bc b43e cea3 e63f
000000c0: 309c 8c3e dd42 d2bf c4d5 b53e 5d2f 9b3f
000000d0: 4cf3 603e 47b3 463f 6f8b 0d3f 4733 6fbe
000000e0: 0be0 fe3f c014 7dbe 0628 b73f 8867 a93f
000000f0: 236b 94bf c398 11be 62ab bf3f 9f37 49bf

L2.bias f4 [8]
-0.34676203 0.93814516 0.43731892 -0.029297799 0.1285292 0.75088644 -0.4370294 0.018411217
00000000: cb8a b1be 482a 703f 44e8 df3e f001 f0bc
00000010: 299d 033e 183a 403f 51c2 dfbe 1fd3 963c

L3.weight f4 [12, 8]
-0.112200595 -1.8852068 -0.0350727 0.7686041 0.93789697 -0.5391774 -1.9018933 -0.82530963
-0.076838225 -0.37540385 0.86481804 -1.7379738 0.5757149 1.062094 -1.3691142 -1.0343767
-0.03587269 -2.9018052 -2.124044 0.29405448 0.8359998 0.91106486 -1.61065 -1.0418947
0.24188253 -0.4033486 -0.56030977 0.222989 0.00219115 0.510402 -0.9149893 0.22988653
0.1305741 0.89206415 0.08791794 -2.3333948 -1.0844098 -1.0686005 -0.6660197 0.74898565
0.12363439 -0.23375636 -0.56467843 0.5594023 -1.8409501 -1.6922406 -0.5769112 0.65782
-0.12459098 0.16648792 0.6974985 0.5797757 -0.49153528 -1.3211613 -1.2055087 -2.2803202
0.1647866 -0.5759814 0.6762465 -0.40356356 -1.3102173 0.038253468 0.69774187 0.35949236
-0.35932687 -2.76921 -0.3027335 -0.3299827 0.30220985 0.79865927 0.48315313 0.14988296
-0.037800156 0.007656913 -2.3107462 1.2604494 -0.7834705 -1.0924722 -1.5578642 -0.434258
-0.14011256 -2.2776926 0.7577115 0.10732503 0.19784285 -0.17293608 0.63340914 -0.7480225
-0.012814179 0.40930077 0.96579206 -0.21817076 -2.4160016 -1.5591471 -3.3165154 -0.044977468
00000000: 6dc9 e5bd 754e f1bf 64a8 0fbd 3dc3 443f
00000010: 041a 703f 8807 0abf 3d71 f3bf 7e47 53bf
00000020: 5c5d 9dbd ef34 c0be b764 5d3f ed75 debf
00000030: 0d62 133f b2f2 873f 223f afbf 7566 84bf
00000040: 3eef 12bd 2db7 39c0 56f0 07c0 4f8e 963e
00000050: 1504 563f 8c3b 693f c729 cebf ce5c 85bf
00000060: 0eb0 773e b583 cebe 7670 0fbf 3a57 643e
00000070: 6699 0f3b b5a9 023f bd3c 6abf 6067 6b3e
00000080: 38b5 053e 515e 643f 520e b43d 5756 15c0
00000090: f1cd 8abf e7c7 88bf 4480 2abf 86bd 3f3f
000000a0: 0734 fd3d d45d 6fbe c48e 10bf fd34 0f3f
000000b0: 41a4 ebbf 579b d8bf 74b0 13bf e466 283f
000000c0: 8e29 ffbd cf7b 2a3e 438f 323f 2e6c 143f
000000d0: 83aa fbbe d01b a9bf 1c4e 9abf c4f0 11c0
000000e0: d2bd 283e 8473 13bf 7e1e 2d3f e29f cebe
000000f0: 33b5 a7bf abaf 1c3d 369f 323f 620f b83e
00000100: b1f9 b7be bd3a 31c0 e3ff 9abe 7ef3 a8be
00000110: 40bb 9a3e ef74 4c3f d95f f73e eb7a 193e
00000120: 56d4 1abd d7e6 fa3b 44e3 13c0 6856 a13f
00000130: 8691 48bf 21d6 8bbf 1868 c7bf 1157 debe
00000140: ab79 0fbe b7c5 11c0 62f9 413f 3acd db3d
00000150: 5197 4a3e 2816 31be 1a27 223f 677e 3fbf
00000160: 90f2 51bc df8f d13e 263e 773f 2868 5fbe
00000170: c59f 1ac0 2292 c7bf ca41 54c0 4b3a 38bd

L3.bias f4 [12]
-0.21415477 0.4570897 0.39008018 0.20242274 0.25337502 -0.5080129 0.112648696 -0.28711072
-0.64155173 0.44318128 -0.13310418 0.6625149
00000000: 634b 5bbe a907 ea3e 97b8 c73e e847 4f3e
00000010: 5fba 813e 220d 02bf 5cb4 e63d 2d00 93be
00000020: bc3c 24bf a8e8 e23e 764c 08be 949a 293f
